model_saved.pt (torch_old, 107535 bytes, 5 tensors)

lstm.weight_ih_l0 f4 [320, 1]
0	0xbd8603b2	-0.065436736
1	0xbe1a2ad1	-0.15055396
2	0x3deab54a	0.114603594
3	0x3e4a26f6	0.19741425
4	0xbe6db6ad	-0.23214217
5	0x3e84e224	0.25953782
6	0x3efdf6ef	0.49602458
7	0x3ed06bd7	0.40707275
8	0xbeef91a9	-0.46790817
9	0x3e8b357f	0.27189252
10	0x3defd045	0.11709646
11	0xbf5c8bf1	-0.86151034
12	0xbf325990	-0.6966791
13	0xbe2ac183	-0.16675381
14	0x3eafb371	0.3431659
15	0xbcc685e4	-0.024233766
16	0xbcbdbe11	-0.02316192
17	0xbf015311	-0.50517374
18	0xbe95aba1	-0.29232505
19	0xbed077bd	-0.40716353
20	0xbdefb2d8	-0.117040336
21	0x3e319bce	0.17344591
22	0xbdc2b094	-0.09506336
23	0xbf349cf6	-0.70552003
24	0xbeab4ddf	-0.33457848
25	0xbf6ce021	-0.92529494
26	0x3ed10b95	0.4082915
27	0xbf1a3574	-0.60237813
28	0xbee43fa0	-0.44579792
29	0x3efc4223	0.49269208
30	0x3e23d784	0.16000181
31	0x3d4cd0e4	0.0500039
32	0xbdcc0f50	-0.09963858
33	0xbf78418e	-0.9697503
34	0x3e2ba6dc	0.1676287
35	0xbf3e6cc9	-0.7438474
36	0x3f280a17	0.65640396
37	0x3d11606f	0.035492357
38	0x3e37990f	0.17929481
39	0x3f138b6d	0.5763462
40	0x3df966de	0.121778235
41	0xbe03bece	-0.12865755
42	0xbd5fb000	-0.054611206
43	0x3e9d51d1	0.30726483
44	0xbef0e33e	-0.47048372
45	0xbf3aa2b2	-0.72904503
46	0xbf3af7e0	-0.7303448
47	0x3e0edfa5	0.13952501
48	0xbe924918	-0.2857139
49	0xbf3010e1	-0.68775755
50	0x3eeb9dbf	0.46018788
51	0x3df735d7	0.12070816
52	0xbeb06187	-0.34449407
53	0xbe993ab1	-0.2992759
54	0xbf497370	-0.7869177
55	0xbe6301c2	-0.2216864
56	0xbe9a048d	-0.30081597
57	0xbef615fd	-0.4806365
58	0xbd919d20	-0.07110047
59	0x3dfc9adb	0.12334224
60	0xbf1219e7	-0.57070774
61	0xbdd24d8a	-0.10268696
62	0x3e07967f	0.13241003
63	0x3e55d980	0.20883751
64	0xbda2fd1a	-0.079584315
65	0xbefa5bc2	-0.4889813
66	0xbf071980	-0.52773285
67	0xbebd7385	-0.37002197
68	0xbe44bfbc	-0.19213766
69	0xbe8ee6fc	-0.27910602
70	0x3eea91f9	0.45814493
71	0xbf38369e	-0.7195834
72	0xbf33a8e1	-0.70179564
73	0xbd53f24d	-0.051744748
74	0xbece35a9	-0.40275314
75	0x3db503d8	0.08838624
76	0xbf1e4020	-0.61816597
77	0xbf244fef	-0.6418447
78	0xbddd2a80	-0.10799122
79	0xbe4bed5b	-0.19914763
80	0xbe8fa747	-0.2805731
81	0xbe3bd3f1	-0.18342568
82	0x3e581b51	0.2110417
83	0xbe004e0a	-0.1252977
84	0xbef417da	-0.47674447
85	0x3d347742	0.044059046
86	0x3eb59156	0.35462445
87	0x3e22b544	0.1588946
88	0xbe98f151	-0.2987161
89	0xbe370855	-0.17874272
90	0xbe985073	-0.29748878
91	0x3e36a62f	0.17836832
92	0xbdb4e4ae	-0.0883268
93	0xbdf9072a	-0.121595696
94	0x3dad966b	0.084759556
95	0x3e627264	0.22113949
96	0xbdc3cfed	-0.09561143
97	0xbd08a0a3	-0.03335632
98	0xbe850345	-0.25979057
99	0x3e0bf88c	0.13669032
100	0xbe24638b	-0.16053598
101	0xbee01c7e	-0.43771738
102	0xbe5de503	-0.21669392
103	0xbd6f01fd	-0.058351506
104	0xbe572703	-0.21010976
105	0xbebb7a07	-0.36616537
106	0x3e14b9bd	0.14523979
107	0xbe374837	-0.17898642
108	0x3e4742f6	0.19459137
109	0xbe9146d2	-0.28374344
110	0xbe902567	-0.28153536
111	0xbe809a4b	-0.25117716
112	0xbe53fdab	-0.20702235
113	0xbe903697	-0.2816665
114	0xbe6ae4b7	-0.2293881
115	0xbeab775e	-0.33489507
116	0xbe2cc188	-0.16870701
117	0x3ccaa52d	0.024736965
118	0x3de69a86	0.11259942
119	0x3e07012f	0.13184045
120	0xbebe3f32	-0.3715759
121	0xbceb47d1	-0.028720768
122	0x3e1648e0	0.14676237
123	0xbed67983	-0.4188958
124	0xbe80e27a	-0.25172788
125	0xbe66d2df	-0.22541378
126	0x3e8d5304	0.27602398
127	0xbda1a3c9	-0.07892568
128	0xbdf68ec5	-0.1203895
129	0xbe4b82c8	-0.19874108
130	0xbe7a955c	-0.24471039
131	0x3f0046a8	0.5010781
132	0x3e074de3	0.13213305
133	0x3eca5758	0.39519763
134	0x3cd37083	0.025810486
135	0xbd7b1f46	-0.06130912
136	0xbe4c1916	-0.19931445
137	0xbe0d3e4e	-0.13793299
138	0xbd26b229	-0.04069725
139	0x3f17e4e2	0.5933362
140	0xbda30e29	-0.07961685
141	0xbe54fbd1	-0.20799185
142	0x3e268b85	0.1626416
143	0xbd6f145a	-0.05836902
144	0x3d058bb4	0.032603934
145	0xbed5aeca	-0.41734916
146	0xbd18d58d	-0.037313033
147	0xbe2ed0b5	-0.17071803
148	0x3e08558d	0.13313885
149	0xbe61bc23	-0.22044425
150	0xbe000c41	-0.12504674
151	0xbe8dffd2	-0.27734238
152	0xbf35d1ab	-0.7102305
153	0xbe768a8f	-0.24076293
154	0xbe658ab0	-0.22416186
155	0x3d2041f4	0.039125398
156	0xbef7a011	-0.48364308
157	0x3dcdf9cf	0.10057413
158	0xbe108006	-0.14111337
159	0xbe2150db	-0.157535
160	0x3e2031cf	0.15644
161	0x3e868504	0.26273358
162	0x3d57c978	0.05268237
163	0xbd679660	-0.056539893
164	0x3edc8728	0.43071866
165	0x3ba6a870	0.0050859973
166	0xbed26768	-0.41094518
167	0x3ebbdfa4	0.36694062
168	0x3efbd3f9	0.4918516
169	0x3de186f0	0.110120654
170	0xbefba22f	-0.49147174
171	0x3ee88f66	0.45421904
172	0xbee09e5e	-0.43870825
173	0x3f13f775	0.57799464
174	0xbee13a69	-0.43989876
175	0x3ebce34c	0.36892164
176	0x3e6a8635	0.22902758
177	0xbef6dee0	-0.48216915
178	0xbe412217	-0.1886066
179	0x3ebcd553	0.36881503
180	0x3e6d8378	0.23194683
181	0x3e818bc0	0.25301933
182	0x3f3cb80e	0.73718345
183	0x3efbf613	0.49211177
184	0xbf255018	-0.6457534
185	0xbf3f842d	-0.7481106
186	0xbec4ce4d	-0.38438645
187	0xbf09b665	-0.53793937
188	0x3ebea51e	0.3723535
189	0x3e71168b	0.23543756
190	0x3de5cb99	0.11220474
191	0xbdf9b364	-0.12192419
192	0xbf08e511	-0.5347453
193	0x3f29bed8	0.6630683
194	0xbe887051	-0.2664819
195	0xbf45bc08	-0.7724004
196	0x3deb8d1b	0.11501523
197	0x3e86bb28	0.26314664
198	0xbe315c1f	-0.17320298
199	0xbe7ac294	-0.24488288
200	0xbe2f62ce	-0.17127535
201	0xbe87838d	-0.26467553
202	0xbe9783b5	-0.29592672
203	0x3e483847	0.19552718
204	0x3eb5b207	0.35487387
205	0x3f3a9c65	0.7289489
206	0x3ee21b07	0.44161245
207	0xbbd529a2	-0.006505207
208	0x3d780234	0.060548976
209	0x3f2cdca7	0.6752419
210	0x3dc42561	0.09577442
211	0xbf2d2877	-0.6763987
212	0x3ee5a494	0.44852126
213	0x3ef51236	0.47865456
214	0xbf083593	-0.5320675
215	0x3e409e20	0.1881032
216	0x3e37d9a7	0.17954122
217	0xbef90295	-0.48634782
218	0x3d84ca28	0.06483871
219	0x3f0500de	0.5195445
220	0x3f014e42	0.50510037
221	0x3dbaf484	0.09128669
222	0x3f1c1285	0.6096576
223	0xbf0e8af8	-0.556808
224	0xbec7b56f	-0.3900561
225	0xbf0a9e95	-0.54148227
226	0xbedd1bd2	-0.43185288
227	0x3e85228c	0.2600292
228	0xbec76c09	-0.38949612
229	0xbe031788	-0.12801945
230	0x3e1264da	0.14296284
231	0xbef39545	-0.4757482
232	0x3eeec16d	0.46631947
233	0x3b254c7d	0.0025222593
234	0x3ea24b6a	0.3169816
235	0xbec2dff0	-0.38061476
236	0xbee25701	-0.44207004
237	0x3ee0ddc0	0.43919182
238	0xbf1b882a	-0.60754645
239	0xbe64e517	-0.22353016
240	0xbe31750a	-0.17329803
241	0xbcff92e0	-0.031197965
242	0x3d4d4b91	0.050120894
243	0x3e029380	0.1275158
244	0xbd1d56fd	-0.038413037
245	0xbda3001e	-0.07959007
246	0x3d19f35c	0.0375856
247	0x3e47f767	0.1952797
248	0xbf032391	-0.51226145
249	0x3e2a489b	0.1662926
250	0x3c99d7cd	0.01877966
251	0xbf093a7e	-0.53604877
252	0xbeebec79	-0.46078852
253	0xbe429a54	-0.19004184
254	0x3e1fc6a2	0.15603116
255	0xbe80ce59	-0.2515743

lstm.weight_hh_l0 f4 [320, 80]
0	0x3e360e24	0.17778832
1	0x3f013398	0.5046935
2	0x3f14721f	0.57986635
3	0x3e6f8dc3	0.23393922
4	0xbec882e5	-0.39162365
5	0x3edcee74	0.43150675
6	0x3f2d56ef	0.67710775
7	0xbf4b402e	-0.79394805
8	0xbf02a37c	-0.5103071
9	0xbeaa8f5b	-0.33312497
10	0x3db07671	0.08616341
11	0xbe11cafe	-0.14237592
12	0x3edb4b13	0.42830715
13	0xbe74b412	-0.23896816
14	0x3f0ad529	0.54231507
15	0xbf336e01	-0.7008973
16	0xbeacfa6a	-0.337848
17	0x3f17dd94	0.59322476
18	0x3e4e2749	0.20132174
19	0xbe8d068d	-0.2754406
20	0xbdac2f41	-0.084074505
21	0x3e0dd9c4	0.13852602
22	0xbdaf30cf	-0.085542314
23	0xbee5ab00	-0.44857025
24	0x3c144620	0.009049922
25	0xbe20f761	-0.15719368
26	0x3ebac2fa	0.3647688
27	0x3f1f0912	0.62123215
28	0xbe12bb25	-0.14329202
29	0xbd303ac5	-0.043024797
30	0xbe30a1f7	-0.17249285
31	0x3f12c4f3	0.5733177
32	0x3cf3096d	0.02966758
33	0x3e0243e8	0.12721217
34	0xbe6e7a6a	-0.23288885
35	0xbe4dbc14	-0.20091277
36	0xbef3a928	-0.47589993
37	0xbc93a867	-0.018024636
38	0x3f1a086d	0.60169107
39	0xba279884	-0.0006393271
40	0x3c50a04b	0.012733529
41	0x3edc2f93	0.43005046
42	0x3e214749	0.1574985
43	0xbe9329c1	-0.28742793
44	0xbe034cc0	-0.12822247
45	0x3ced77ed	0.02898785
46	0xbe572dd6	-0.21013579
47	0xbf0121e7	-0.50442356
48	0x3eb3e43d	0.3513507
49	0x3e64441c	0.22291607
50	0xbead6b11	-0.33870748
51	0xbdcde182	-0.10052778
52	0xbf040b10	-0.5157938
53	0x3dca18f7	0.09868043
54	0x3e27d939	0.16391458
55	0x3d7a47d1	0.061103646
56	0xbe819fb4	-0.25317156
57	0x3f01a0e6	0.50636137
58	0x3e3535e3	0.17696337
59	0xbda3b037	-0.07992595
60	0xbdbdc44d	-0.09265957
61	0x3e5d259d	0.2159638
62	0xbd16eff8	-0.036849946
63	0x3ec8552a	0.39127475
64	0x3e29aac1	0.16569044
65	0x3f0537ff	0.5203857
66	0x3eee7cef	0.46579692
67	0xbcfd6b6c	-0.030935012
68	0x3eb8e220	0.3611002
69	0xbcac067c	-0.020999186
70	0xbf24d79c	-0.64391494
71	0xbaca791e	-0.0015447473
72	0x3f36b7e4	0.71374345
73	0xbda40815	-0.08009354
74	0xbe8bb0a5	-0.27283207
75	0x3ea6b402	0.3255921
76	0xbed56ac9	-0.41683033
77	0xbed3b4f1	-0.41348985
78	0x3e904340	0.28176308
79	0x3e5eb8ed	0.21750231
80	0x3e536073	0.20642261
81	0xbe1434e1	-0.14473297
82	0x3ef3c45c	0.47610748
83	0xbf07b14e	-0.5300492
84	0xbe08937c	-0.13337511
85	0x3ec01947	0.37519285
86	0x3f1de6b1	0.6168013
87	0xbf02f04a	-0.511479
88	0xbe0dae9a	-0.13836136
89	0x3ebccbc4	0.3687421
90	0x3f45f472	0.7732612
91	0xbe0fede0	-0.14055586
92	0x3e1e09bd	0.15433402
93	0xbf4904c0	-0.7852287
94	0x3f44f233	0.76932067
95	0xbe43b745	-0.1911288
96	0x3e6fd8a9	0.23422493
97	0xbc5bb64b	-0.013410161
98	0x3d19fb03	0.0375929
99	0xbe81d683	-0.25358972
100	0x3c9b5673	0.01896212
101	0xbeca2092	-0.39477974
102	0xbf16769b	-0.5877473
103	0xbe028a86	-0.12748155
104	0x3f1f90cc	0.6233032
105	0x3e16962b	0.14705722
106	0x3ef5bd81	0.47996143
107	0x3eb7bc97	0.3588607
108	0xbca531f2	-0.020165417
109	0xbeaf1cb9	-0.342016
110	0x3ef6f55e	0.48234075
111	0x3decf9bf	0.11571073
112	0xbf1682f7	-0.58793586
113	0xbec970d5	-0.39343897
114	0x3ea717e3	0.32635412
115	0x3df8bc67	0.1214531
116	0xbe93db34	-0.28878176
117	0xbe588e23	-0.21147971
118	0x3efb401b	0.49072346
119	0x3eb8a126	0.36060447
120	0x3e85027b	0.25978455
121	0x3e14c464	0.14528042
122	0x3e18f84d	0.14938469
123	0x3f056437	0.5210604
124	0xbe71db8a	-0.23618904
125	0xbe9dfc30	-0.30856466
126	0xbdb9f0b9	-0.09079117
127	0xbdfc5964	-0.123217374
128	0x3eb53924	0.35395157
129	0xbecaaa8e	-0.39583248
130	0x3d219056	0.03944429
131	0x3f61a0e0	0.881361
132	0xbd99ecbe	-0.07515858
133	0xbef9f001	-0.4881592
134	0x3ded8d9a	0.11599274
135	0x3db76a68	0.08955842
136	0x3e25036b	0.16114585
137	0x3ebdac6e	0.37045616
138	0xbd9262a7	-0.07147723
139	0xbdc64145	-0.09680418
140	0xbdbf42f5	-0.09338943
141	0xbd8ca6cd	-0.06867752
142	0xbf444889	-0.7667318
143	0x3f4c16a7	0.79722065
144	0x3e234c19	0.15946998
145	0x3edfd4f6	0.43717164
146	0xbd7f6750	-0.062354386
147	0x3e8a0f1e	0.26964658
148	0x3e9bbdc4	0.30418217
149	0x3d4a81e0	0.049440265
150	0xbe86e705	-0.2634813
151	0x3e19b4b4	0.15010339
152	0xbf08de3a	-0.5346409
153	0x3e1d44ed	0.15358324
154	0xbe0cbcb6	-0.13743863
155	0x3edfbaca	0.43697196
156	0x3ebdf87a	0.37103635
157	0xbeaf516a	-0.34241802
158	0x3f073e3f	0.52829355
159	0x3eb71390	0.35757113
160	0xbe27914a	-0.16364017
161	0x3eed9b36	0.4640748
162	0xbc868459	-0.01642053
163	0x3e872230	0.2639327
164	0xbe0fc03b	-0.14038174
165	0x3e3766f7	0.17910372
166	0x3eb28543	0.34867296
167	0xbea05712	-0.3131643
168	0xbe9bbeec	-0.304191
169	0x3d4c9108	0.049943
170	0xbe391d45	-0.18077572
171	0x3d98c362	0.07459141
172	0xbd58de4b	-0.05294637
173	0x3e7cc34e	0.24683878
174	0x3ed4a8c8	0.4153502
175	0xbe72589f	-0.23666619
176	0xbe82f028	-0.2557385
177	0x3d08b4e3	0.033375632
178	0x3e006649	0.12539019
179	0xbded1e14	-0.115780026
180	0xbca42c2c	-0.020040594
181	0xbd506109	-0.05087379
182	0x3e035d4c	0.12828559
183	0x3dee0207	0.116214804
184	0xbec4ab1a	-0.3841179
185	0xbf10654a	-0.56404555
186	0x3e6e4c0f	0.23271202
187	0xbd076a41	-0.033060316
188	0x3e422ec5	0.18963154
189	0xbeb08667	-0.3447754
190	0xbe4bcace	-0.19901583
191	0x3ea9172e	0.33025497
192	0xbf2bf1cf	-0.67165846
193	0x3eb8c1e8	0.3608544
194	0x3df424d0	0.11921084
195	0xbeed3d73	-0.46335945
196	0xbedc831c	-0.4306878
197	0xbe090875	-0.13382132
198	0x3e045fd7	0.12927185
199	0x3de4e94a	0.11177309
200	0x3e9264ca	0.2859252
201	0x3e2ecda8	0.17070639
202	0xbcde6717	-0.027148766
203	0xbe840295	-0.2578322
204	0x3e62f920	0.22165346
205	0x3f147711	0.5799418
206	0xbcc174ac	-0.023615204
207	0xbf04f20c	-0.51931834
208	0xbddc70e0	-0.10763717
209	0x3e6649bb	0.22489063
210	0xbf00f858	-0.5037894
211	0x3ce07a8f	0.02740219
212	0xbdcfe840	-0.1015172
213	0x3db965a7	0.09052592
214	0xbed6c987	-0.41950628
215	0xbd08dbb6	-0.033412658
216	0x3d121ef6	0.035674058
217	0x3e851544	0.25992787
218	0x3f09603e	0.5366248
219	0xbe18354a	-0.14864078
220	0x3f0e849c	0.55671096
221	0x3e4be355	0.19910939
222	0xbec4f1c0	-0.3846569
223	0xbde16c33	-0.110069655
224	0xbcc97570	-0.024592131
225	0x3d3fef73	0.046859216
226	0xbde29350	-0.11063254
227	0x3e71df4c	0.23620337
228	0x3dd0a0f4	0.10186949
229	0x3c74caea	0.014940957
230	0xbf0186dd	-0.5059641
231	0xbecb6f54	-0.39733374
232	0x3e80e671	0.25175813
233	0xbd973328	-0.07382804
234	0xbe619888	-0.22030842
235	0x3eadd211	0.3394933
236	0xbe4677be	-0.19381616
237	0xbefb0d57	-0.49033615
238	0xbd37b47f	-0.04484987
239	0x3eb5e17d	0.35523596
240	0xbd232b4f	-0.039836224
241	0x3e59cdb6	0.21269879
242	0x3d81bde1	0.06335045
243	0x3e5df371	0.21674897
244	0x3edec982	0.43513113
245	0x3df70f9c	0.12063524
246	0x3dd516ec	0.104047626
247	0xbe9b0a97	-0.30281517
248	0x3e9e29f8	0.30891395
249	0x3dddd3f7	0.10831445
250	0xbe803687	-0.250416
251	0x3f2b2f38	0.66868925
252	0xbe91880d	-0.2842411
253	0x3ec1ac4a	0.3782676
254	0x3e14dd84	0.14537627
255	0x3ce126d8	0.027484342

lstm.bias_ih_l0 f4 [320]
0	0xbf3fd6d7	-0.74937195
1	0xbed54bc2	-0.4165936
2	0xbf324fcb	-0.69653004
3	0xbf40b4d1	-0.75275904
4	0xbf2addfe	-0.66744983
5	0xbf1c8965	-0.6114715
6	0xbea5801e	-0.32324308
7	0xbf5145d3	-0.8174717
8	0xbec1bd02	-0.37839514
9	0xbf29bb7c	-0.66301703
10	0xbf03b34e	-0.5144547
11	0xbeac6391	-0.33669713
12	0xbeceaea2	-0.4036761
13	0xbd687648	-0.056753427
14	0xbf0e0e5c	-0.5549066
15	0xbee1847b	-0.44046387
16	0xbf30c1e3	-0.6904585
17	0xbe91872f	-0.2842345
18	0xbf7f1c65	-0.996527
19	0xbecf4dbc	-0.40488994
20	0xbf469d1c	-0.7758348
21	0xbf2eb121	-0.6823903
22	0x3cf3d5ce	0.029765036
23	0xbe769dba	-0.24083605
24	0xbe1a6e6f	-0.1508119
25	0xbd7800bb	-0.06054757
26	0xbee84489	-0.45364788
27	0xbe181869	-0.14853062
28	0xbe81d30b	-0.25356326
29	0xbeff72f1	-0.4989238
30	0xbf1e2180	-0.61769867
31	0xbf42efa4	-0.7614691
32	0xbdde3121	-0.10849214
33	0xbe46b844	-0.1940623
34	0xbeb1f591	-0.34757665
35	0x3e26ffca	0.16308513
36	0xbe91f237	-0.28505108
37	0xbf611952	-0.8792926
38	0xbf5c8322	-0.8613759
39	0xbe48612c	-0.19568318
40	0xbfa0db98	-1.2567015
41	0xbf54e024	-0.8315451
42	0xbf3c22eb	-0.7349078
43	0xbf0114c1	-0.5042229
44	0xbed834ca	-0.42227775
45	0x3d4d0f12	0.0500632
46	0xbf04c501	-0.51863104
47	0xbf220397	-0.6328673
48	0xbf3b0bfa	-0.7306515
49	0x3c3a22f3	0.011360872
50	0xbf065965	-0.52480155
51	0x3d2d626c	0.04233019
52	0xbeb496ca	-0.35271293
53	0xbe99600c	-0.2995609
54	0xbe7cf595	-0.24703057
55	0xbf6a6a8e	-0.9156884
56	0xbf54c6a6	-0.83115613
57	0xbed5bb6c	-0.41744554
58	0xbf550c12	-0.8322154
59	0xbea5b437	-0.32364056
60	0xbe625696	-0.22103342
61	0xbf46bf31	-0.77635485
62	0xbe6a83da	-0.2290186
63	0xbe3f4a93	-0.18680792
64	0xbf1992d5	-0.5998967
65	0xbde0515d	-0.10953019
66	0xbe867fb9	-0.2626932
67	0xbf449ae6	-0.76798856
68	0xbf20d013	-0.62817496
69	0xbfa611cb	-1.297418
70	0xbf1880c3	-0.59571475
71	0xbee18b6d	-0.44051686
72	0xbdf94bab	-0.12172636
73	0xbf771662	-0.9651853
74	0xbf07c2cc	-0.5303161
75	0xbe9f27bc	-0.31085002
76	0xbe8940fc	-0.26807392
77	0xbe83fda2	-0.25779444
78	0xbe04f03e	-0.1298227
79	0xbf5b0a3a	-0.8556248
80	0xbf2787cb	-0.6544158
81	0xbdb4d397	-0.0882942
82	0xbe814f99	-0.2525604
83	0xbe5b9a4a	-0.21445575
84	0xbec1dbff	-0.37863156
85	0xbed0d325	-0.4078609
86	0x3e2530a9	0.16131844
87	0xbeccc1f1	-0.39991716
88	0xbeb2fd59	-0.34958914
89	0xbf71ff86	-0.9453052
90	0xbe3b0f00	-0.18267441
91	0xbe1eb78b	-0.15499704
92	0xbed01ccc	-0.4064697
93	0x3f092391	0.53569895
94	0x3dc9a930	0.09846723
95	0x3c086c6e	0.008326633
96	0xbec30624	-0.38090622
97	0xbeddddb6	-0.43333215
98	0xbf0af1e8	-0.5427537
99	0xbeb3b095	-0.3509566
100	0xbf09c8f1	-0.5382224
101	0xbf04a774	-0.51818013
102	0x3de3a4d5	0.111154236
103	0xbebfba6f	-0.37446925
104	0xbd6899da	-0.05678735
105	0xbda88a63	-0.0822952
106	0x3d700eb8	0.058607787
107	0xbecb3c6c	-0.39694536
108	0xbe25acb9	-0.1617917
109	0xbecefef7	-0.40428898
110	0xbefdc6f6	-0.49565858
111	0xbf18c163	-0.59670085
112	0x3f1a5752	0.6028949
113	0xbe21e235	-0.15808947
114	0xbed4f471	-0.41592744
115	0x3e6a37f4	0.22872907
116	0x3d082dab	0.033246677
117	0xbee51e7a	-0.44749814
118	0xbe985ad9	-0.2975681
119	0x3eabd2aa	0.3355916
120	0xbf400c2f	-0.7501859
121	0xbeeb1355	-0.45913187
122	0xbe55bea5	-0.20873506
123	0xbed5ea4c	-0.41780317
124	0xbe8574a9	-0.26065567
125	0xbe81e8db	-0.25372967
126	0xbdb19ac4	-0.08672097
127	0xbeef9a3b	-0.46797356
128	0xbee210ef	-0.44153544
129	0xbe794834	-0.2434395
130	0xbebf6db6	-0.3738839
131	0x3d288462	0.041141875
132	0xbea7cd48	-0.32773805
133	0xbd5f4999	-0.054513548
134	0xbdd1c136	-0.1024193
135	0xbf2a1c9f	-0.6644992
136	0xbef08418	-0.4697578
137	0xbf03aa78	-0.5143199
138	0xbef0cf61	-0.47033218
139	0x3e024769	0.12722553
140	0xbe1bc111	-0.15210368
141	0xbf3fc0bf	-0.7490348
142	0x3c024e16	0.007953187
143	0x3d96506e	0.073395595
144	0xbe1dd944	-0.15414912
145	0xbea7ed81	-0.3279839
146	0xbe9c65b4	-0.30546343
147	0xbe7f8151	-0.24951674
148	0xbec32a3f	-0.3811817
149	0xbf555abc	-0.83341575
150	0xbeb1615c	-0.34644592
151	0xbe608027	-0.21923886
152	0xbdf8d755	-0.12150446
153	0xbf491bb8	-0.7855792
154	0xbeaac366	-0.33352202
155	0xbe42e245	-0.19031627
156	0xbd2d92e2	-0.042376406
157	0xbf0089a8	-0.50210047
158	0xbe83350f	-0.25626418
159	0xbf229fac	-0.6352489
160	0x3cb7d9ad	0.022442663
161	0x3da3eb3e	0.08003853
162	0x3c714980	0.014726996
163	0x3cdf6ed6	0.02727453
164	0xbbc95bfc	-0.0061449986
165	0x3cc90119	0.024536656
166	0x3dc7a15b	0.09747573
167	0xbd664134	-0.056214526
168	0x3ce6f35d	0.028192217
169	0xbc073c2e	-0.008254094
170	0x3c4599a9	0.012060561
171	0x3db7eeaf	0.08981072
172	0x3dcd98e6	0.10038929
173	0xbcd876ed	-0.026423896
174	0xbd1a7152	-0.037705727
175	0xbd1e6f66	-0.038680457
176	0x3be42cdb	0.006963355
177	0x3d364dc8	0.04450777
178	0x3c5d80e8	0.013519503
179	0x3c3c5261	0.01149425
180	0xbb98f38a	-0.004667704
181	0x3c5ffeae	0.01367156
182	0xbd1dd28a	-0.038530864
183	0xbdb389aa	-0.08766492
184	0x3d8f0f9d	0.069854
185	0x3c2e15ce	0.010625316
186	0x3dc498f0	0.09599483
187	0xbc4e47fe	-0.012590406
188	0x3d4c311a	0.049851514
189	0x3d16dd75	0.03683229
190	0x3c1a988b	0.009435783
191	0xbca4451a	-0.020052481
192	0xbd9d7c76	-0.07689755
193	0x3d413eda	0.04717908
194	0x3be9ce97	0.007135223
195	0x3dc7bddb	0.09753009
196	0x3d058de9	0.03260604
197	0xbdd1abbb	-0.10237833
198	0xbb97f115	-0.0046368935
199	0xbc2602e0	-0.010132521
200	0xbc7daa3f	-0.015482484
201	0xbc81a106	-0.015823852
202	0x3d2e1557	0.04250082
203	0xbc126f84	-0.00893772
204	0xbd3a4ed1	-0.04548532
205	0xbd5ac814	-0.053413466
206	0x3b941ee1	0.0045202826
207	0x3d172f57	0.03691038
208	0xbd6eff3d	-0.058348883
209	0xbd29edc3	-0.041486513
210	0x3dd6ac35	0.10482065
211	0xbc85d70a	-0.01633789
212	0xba3f138d	-0.0007288985
213	0xbc8b13ba	-0.01697718
214	0x3c1df49b	0.009640838
215	0xbdca7a83	-0.098866485
216	0x3ca21bcb	0.019788643
217	0x3cd9c9ac	0.026585422
218	0x3b9ec7c9	0.0048455936
219	0xbe03ba3f	-0.12864016
220	0xbd8df97d	-0.06932352
221	0x3d919a08	0.07109457
222	0xbce78b53	-0.028264677
223	0xbd012a81	-0.031534676
224	0x3bf533a5	0.007482963
225	0xbdb72717	-0.08943003
226	0x3c79572e	0.015218539
227	0xbbf7dcb4	-0.0075641517
228	0x3c14293d	0.009043035
229	0xbd830336	-0.06397097
230	0xbbd543b4	-0.006508315
231	0x3d550efc	0.052016243
232	0x3dad52de	0.08463071
233	0xbca95b6d	-0.020673478
234	0xba255751	-0.00063072616
235	0x3c9aba22	0.018887583
236	0xbd8e11a9	-0.06936962
237	0xbcabab22	-0.020955626
238	0xbbd50f35	-0.006502057
239	0xbce1ba52	-0.027554665
240	0xbf3e090c	-0.74232554
241	0xbe4bcfe6	-0.19903526
242	0xbf4a01b8	-0.7890887
243	0xbf368b80	-0.7130661
244	0xbf23aabe	-0.63932407
245	0xbf16f866	-0.58972776
246	0xbe657b56	-0.2241033
247	0xbf38c161	-0.7217007
248	0xbec46cdb	-0.383643
249	0xbf357389	-0.7087942
250	0xbee059a9	-0.43818405
251	0xbea6df9d	-0.32592478
252	0xbee1e9d0	-0.44123697
253	0x3bce5df3	0.0062978207
254	0xbe128366	-0.14307937
255	0xbed1b436	-0.40957803

lstm.bias_hh_l0 f4 [320]
0	0xbf348411	-0.7051402
1	0xbeae7f3e	-0.34081453
2	0xbf230e51	-0.6369372
3	0xbf32d4cc	-0.6985595
4	0xbf08168a	-0.5315939
5	0xbf1f89a8	-0.6231942
6	0xbeefa5ce	-0.46806186
7	0xbf66389b	-0.89930123
8	0xbedf3e0d	-0.43602028
9	0xbf4fad8e	-0.811242
10	0xbf0985ce	-0.53719795
11	0xbeec6741	-0.46172526
12	0xbeccdc5e	-0.40011877
13	0xbd12267e	-0.03568124
14	0xbedc2ce5	-0.43003002
15	0xbed5b4ef	-0.41739604
16	0xbf2c54ea	-0.6731707
17	0xbea4b1c0	-0.32166862
18	0xbf6290d0	-0.88502216
19	0xbf01b4f2	-0.50666726
20	0xbf61d76e	-0.88219345
21	0xbf3f6351	-0.7476092
22	0x3e0e2c62	0.13884118
23	0xbed8cff2	-0.4234615
24	0xbe4e8eef	-0.20171712
25	0xbc9c0fef	-0.019050566
26	0xbf09adfa	-0.5378109
27	0xbe90e12c	-0.28296793
28	0xbe90d0f4	-0.2828442
29	0xbf114cda	-0.5675789
30	0xbf493ba1	-0.7860661
31	0xbf540f87	-0.8283619
32	0xbd678698	-0.056524843
33	0xbddda08b	-0.10821637
34	0xbed20592	-0.41019875
35	0x3da1a87c	0.07893464
36	0xbec80e3a	-0.39073354
37	0xbf70456a	-0.9385592
38	0xbf5bc5de	-0.85848796
39	0xbe6660fe	-0.22497937
40	0xbf91f32f	-1.1402339
41	0xbf7e0706	-0.99229467
42	0xbf3a0013	-0.72656363
43	0xbeb1d88d	-0.34735528
44	0xbed1e655	-0.40996042
45	0xbd27c206	-0.04095652
46	0xbed27d4c	-0.4111122
47	0xbf2f437d	-0.68462354
48	0xbf15280f	-0.5826425
49	0xbcfcde11	-0.030867608
50	0xbf0203bb	-0.5078694
51	0x3d124623	0.03571142
52	0xbeee542d	-0.46548596
53	0xbec32fb8	-0.38122344
54	0xbe48fbbe	-0.19627282
55	0xbf4fcdda	-0.8117348
56	0xbf78a5d9	-0.97128063
57	0xbef44349	-0.47707585
58	0xbf2d7be7	-0.67767185
59	0xbe442837	-0.19155966
60	0xbe8eb6fa	-0.27873975
61	0xbf2dfc47	-0.6796307
62	0xbe4adc35	-0.19810565
63	0xbe86bcf4	-0.26316035
64	0xbf2d6b77	-0.67742103
65	0xbde989c3	-0.11403229
66	0xbe9d022b	-0.30665717
67	0xbf16073f	-0.58604807
68	0xbf159961	-0.5843716
69	0xbf9eea2a	-1.2415211
70	0xbf0117c8	-0.5042691
71	0xbedecc88	-0.4351542
72	0xbe0ab22a	-0.13544527
73	0xbf746872	-0.9547187
74	0xbf14445f	-0.57916826
75	0xbed76891	-0.42071965
76	0xbe470b69	-0.19437946
77	0xbe7caf12	-0.24676159
78	0xbe5a9be9	-0.21348538
79	0xbf5d7153	-0.86501044
80	0xbf3c261e	-0.7349566
81	0xbcfd638b	-0.030931255
82	0xbe619043	-0.22027688
83	0xbecc5663	-0.39909658
84	0xbed7782e	-0.42083877
85	0xbec6e1ca	-0.38844138
86	0x3e96f0d3	0.2948061
87	0xbeae75b7	-0.34074184
88	0xbecf7e68	-0.40526128
89	0xbf4b7ab6	-0.7948412
90	0xbe26aa37	-0.1627587
91	0xbe461f6d	-0.19347925
92	0xbe961138	-0.29310012
93	0x3ef984ee	0.4873423
94	0xbd33d94d	-0.043908406
95	0xbdd13e78	-0.10216993
96	0xbeb2b7c5	-0.3490583
97	0xbeeb4ef1	-0.45958665
98	0xbf1a079e	-0.6016787
99	0xbe9ee017	-0.31030342
100	0xbf15fd73	-0.5858986
101	0xbf2219fa	-0.6332089
102	0x3d9a6aa5	0.07539872
103	0xbecce56d	-0.40018788
104	0x3e102ee9	0.14080395
105	0xba313f02	-0.0006761403
106	0xbcd04601	-0.025424005
107	0xbeddadd4	-0.43296683
108	0xbe28ce09	-0.16484846
109	0xbeef4277	-0.46730396
110	0xbefec470	-0.49759245
111	0xbee3a537	-0.44461986
112	0x3f09830b	0.5371558
113	0xbe736d40	-0.23772144
114	0xbebb3ccb	-0.3656982
115	0x3d9d685f	0.07685923
116	0x3d435e68	0.047697455
117	0xbf08af32	-0.53392327
118	0xbe9ed6e7	-0.31023332
119	0x3edb48f4	0.42829096
120	0xbf5822d1	-0.84428126
121	0xbf1d90f7	-0.61549324
122	0xbe7d72db	-0.24750845
123	0xbecf69ae	-0.40510315
124	0xbe745e0e	-0.23864004
125	0xbe608631	-0.2192619
126	0xbe44f470	-0.1923387
127	0xbf0788fc	-0.52943397
128	0xbf0fa778	-0.5611491
129	0xbe765675	-0.24056418
130	0xbede5dd2	-0.43430954
131	0x3ccefee0	0.025268018
132	0xbe4192b4	-0.18903619
133	0xbe102fe1	-0.14080764
134	0xbdaa8c9f	-0.083276026
135	0xbf2d1645	-0.67612106
136	0xbeee9582	-0.4659844
137	0xbeeb3da5	-0.4594547
138	0xbebd55cb	-0.36979517
139	0x3e3f01b9	0.18653001
140	0xbe271a6e	-0.16318676
141	0xbf4c8baa	-0.7990061
142	0xbe29e835	-0.16592486
143	0x3e2327ba	0.15933123
144	0xbe1a4043	-0.15063576
145	0xbed0b41c	-0.40762413
146	0xbeae39b6	-0.34028405
147	0xbe800fc9	-0.25012043
148	0xbe979369	-0.29604653
149	0xbf400715	-0.75010806
150	0xbe360ba5	-0.1777788
151	0xbdfb785b	-0.12278815
152	0xbe388867	-0.18020783
153	0xbf7580ad	-0.9589947
154	0xbf063844	-0.52429605
155	0xbe89d8e2	-0.2692328
156	0xbe1e0e39	-0.15435113
157	0xbf09a1d3	-0.5376255
158	0xbe824831	-0.25445703
159	0xbf2eb922	-0.6825124
160	0xbce95886	-0.028484594
161	0x3ded6f9a	0.11593552
162	0x3d1ed84e	0.038780503
163	0xbdbb549a	-0.09146996
164	0xbcaf6f1e	-0.02141529
165	0xbddc0349	-0.10742814
166	0x3cb81e5c	0.022475414
167	0xbc2e70bf	-0.010646998
168	0xbd46186e	-0.04836314
169	0x3d3aa1e3	0.045564543
170	0x3d6b3432	0.057422824
171	0xbdc88b20	-0.09792161
172	0xbd9bc2f2	-0.07605542
173	0xbd45c0c6	-0.048279546
174	0x3e192e81	0.14959146
175	0xbd81d0a7	-0.063386254
176	0xbd40f7d1	-0.047111336
177	0x3bd68e4a	0.006547724
178	0x3c5d22ad	0.013497037
179	0xbd2c306f	-0.042038377
180	0xbc1f8602	-0.00973654
181	0xbd6258a2	-0.055260308
182	0xbc6afd0b	-0.014342557
183	0x3d618fe3	0.05506886
184	0x3c36c1d1	0.011154608
185	0x3b72e171	0.0037060643
186	0xbc099d1e	-0.008399276
187	0x3d2ba74f	0.041907605
188	0xbd3a3e41	-0.045469526
189	0xbd390907	-0.045174625
190	0xbd7b654e	-0.06137591
191	0x3c8d7b6b	0.017270764
192	0xbdaadd74	-0.0834302
193	0x3cbd0eb4	0.0230783
194	0xbd1638f7	-0.03667542
195	0xbd3138af	-0.04326695
196	0x3bd2a7a2	0.006428675
197	0x3daab561	0.083353765
198	0x3d140669	0.036138926
199	0x3de068b1	0.10957468
200	0x3c98be88	0.01864554
201	0x3bde791b	0.0067893392
202	0x3cbb2d58	0.02284877
203	0xbd6f9bb3	-0.058498096
204	0x3d83bea0	0.06432843
205	0x3ccbbc18	0.024869964
206	0xbc1f86e1	-0.0097367475
207	0x3d5618fe	0.05226993
208	0xbba2c7a5	-0.004967647
209	0x3dce17cd	0.100631334
210	0x3b671c33	0.003526461
211	0x3d8be1bd	0.068301655
212	0xbbc927d8	-0.006138783
213	0xbd59b8ff	-0.05315494
214	0x3b79a09f	0.0038090122
215	0x3daf7fc2	0.0856929
216	0x3c2ecc87	0.01066888
217	0xbc0df9ec	-0.008665543
218	0xbc0dc71a	-0.008653427
219	0x3d866127	0.06561499
220	0x3d52251f	0.051304933
221	0xbd9427ab	-0.072341286
222	0xbd006465	-0.031345744
223	0x3dd4b343	0.10385754
224	0x3d3d2cc9	0.04618529
225	0x3e04b3ca	0.12959209
226	0x3a2bcea8	0.00065539265
227	0x3d3b4578	0.045720547
228	0x3cdefac6	0.027219187
229	0x3d76b2a0	0.060228944
230	0x3c8bc061	0.017059507
231	0xbda4f416	-0.08054368
232	0x3e092a8f	0.13395141
233	0xbb39dbb2	-0.0028359708
234	0xbc9feced	-0.019522155
235	0x3ca03b9e	0.019559678
236	0xbe0348b8	-0.12820709
237	0x3a9d0f11	0.001198264
238	0x3cd6ad5c	0.026205711
239	0x3cde0229	0.02710064
240	0xbf3d2fbe	-0.73900974
241	0xbe27ef16	-0.16399798
242	0xbf388d7f	-0.72090906
243	0xbf30abb3	-0.6901199
244	0xbf2a02b3	-0.6641037
245	0xbf1f2d85	-0.6217883
246	0xbe4b8e32	-0.19878462
247	0xbf2b7e76	-0.6698984
248	0xbeae8c17	-0.34091255
249	0xbf4c6bef	-0.79852194
250	0xbf03a214	-0.51419187
251	0xbe701bd0	-0.2344811
252	0xbebff9a6	-0.37495154
253	0xbdcb8dcc	-0.09939155
254	0xbe9de5d7	-0.30839416
255	0xbef05f70	-0.46947813

fc1.weight f4 [1, 80]
0	0x3d8d078f	0.06886207
1	0x3e434f27	0.19073163
2	0x3db518bc	0.08842608
3	0x3d38e3dc	0.04513918
4	0x3d288251	0.041139904
5	0x3e129043	0.14312844
6	0xbd5631dc	-0.052293643
7	0x3d433ef5	0.047667462
8	0x3d8bb5f9	0.06821818
9	0xbd87da11	-0.0663339
10	0xbbb07308	-0.0053848065
11	0x3e32819c	0.17432255
12	0xbe0b938b	-0.13630502
13	0x3e3f905c	0.18707412
14	0xbd88eb17	-0.06685465
15	0x3d9e2b9a	0.0772316
16	0xbd2f0ff6	-0.04273983
17	0xbe0e9cf7	-0.13927065
18	0xbd0091f7	-0.031389203
19	0x3de7c12c	0.113161415
20	0x3cd78f18	0.02631335
21	0x3c6d64d2	0.0144893695
22	0x3e4e491e	0.2014508
23	0x3e142521	0.14467289
24	0xbe12d5a1	-0.14339305
25	0xbe751225	-0.23932703
26	0x3d3833d7	0.044971313
27	0xbe0d3711	-0.13790537
28	0x3e32fd31	0.17479397
29	0xbd729f4e	-0.059233956
30	0xbdd2311f	-0.10263275
31	0x3daed776	0.0853719
32	0xbe8faf3e	-0.28063387
33	0x3e2ddbae	0.16978332
34	0xbd136086	-0.035980724
35	0xbe9db1b6	-0.30799645
36	0xbe5098f6	-0.2037085
37	0x3d77a3d1	0.060458962
38	0xbb57cb21	-0.003292747
39	0x3e4a1884	0.19735914
40	0xbcbb9166	-0.02289648
41	0xbd52861f	-0.05139744
42	0xbd52f069	-0.051498804
43	0xbe00361a	-0.12520638
44	0x3e46cbef	0.19413732
45	0x3e7ac1d9	0.2448801
46	0x3e3f9a14	0.1871112
47	0xbe2c77ce	-0.16842577
48	0x3d5683f5	0.052371938
49	0x3e4c9f76	0.19982705
50	0xbd8d3367	-0.0689457
51	0xbe294885	-0.1653157
52	0x3e1f5220	0.15558672
53	0x3db7c6bd	0.08973453
54	0xbe4e24ee	-0.20131275
55	0x3dba72e5	0.09103946
56	0x3d53c518	0.051701635
57	0xbda4e63b	-0.080517255
58	0x3e09c8fc	0.13455576
59	0x3dc43fcd	0.095824815
60	0x3e1f8142	0.15576652
61	0x3df4831f	0.11939072
62	0x3e232bf7	0.1593474
63	0xbdac5869	-0.084153004
64	0xbc9e2838	-0.019306287
65	0xbdc1609a	-0.094422534
66	0xbe06ccd4	-0.13164073
67	0x3e126b86	0.1429883
68	0xbd985ab1	-0.07439173
69	0xbd2d5c1a	-0.042324163
70	0xbe1f5208	-0.15558636
71	0xbe05a0e9	-0.13049664
72	0x3e8d1662	0.2755614
73	0xbd38ae98	-0.04508838
74	0x3d812342	0.06305553
75	0xbd46776c	-0.048453733
76	0xbe8227c8	-0.25420976
77	0x3d775df0	0.06039232
78	0xbddfe82d	-0.10932956
79	0xbaaf09b9	-0.0013354338
